Model,Ranks,Rank Divisor,Train Split,Random State,Epochs,Batch Size,Normalization,Loss,Optimization,Accuracy,
"Model: ""sequential""
_________________________________________________________________
Layer (type)                 Output Shape              Param #   
=================================================================
dense (Dense)                (None, 64)                384       
_________________________________________________________________
dense_1 (Dense)              (None, 32)                2080      
_________________________________________________________________
dense_2 (Dense)              (None, 20)                660       
_________________________________________________________________
dense_3 (Dense)              (None, 15)                315       
=================================================================
Total params: 3,439
Trainable params: 3,439
Non-trainable params: 0
_________________________________________________________________",15,4000,0.67,42,20,30,tanh,mean_squared_error,<tensorflow.python.keras.optimizer_v2.adam.Adam object at 0x0000021773451760>,0.25361985,
"Model: ""sequential""
_________________________________________________________________
Layer (type)                 Output Shape              Param #   
=================================================================
dense (Dense)                (None, 64)                384       
_________________________________________________________________
dense_1 (Dense)              (None, 32)                2080      
_________________________________________________________________
dense_2 (Dense)              (None, 20)                660       
_________________________________________________________________
dense_3 (Dense)              (None, 15)                315       
=================================================================
Total params: 3,439
Trainable params: 3,439
Non-trainable params: 0
_________________________________________________________________",15,4000,0.67,42,20,30,tanh,mean_squared_error,<tensorflow.python.keras.optimizer_v2.adam.Adam object at 0x0000013996DA18B0>,0.25361985,
"Model: ""sequential""
_________________________________________________________________
…
